models/fr5_pybullet/BC/bc_model.pth (torch, 42322 bytes, 6 tensors)

fc.0.weight f4 [64, 12]
0.10255263 0.1586395 -0.06261429 0.17279445 0.20192789 -0.15630482 0.16229165 -0.09428125
0.1778913 -0.13260233 0.16567568 -0.1516791 -0.16260396 0.07332233 -0.09975064 0.21803054
-0.047636956 0.1277213 0.09608105 0.06990701 -0.07767362 0.090010956 0.08533857 0.28159502
-0.22428046 -0.26069337 0.10934608 0.05613745 -0.0381955 0.18020912 0.11662912 -0.13942346
0.02445564 -0.17783388 -0.21758354 0.25064927 -0.16173218 -0.06722191 0.040143594 0.09993245
-0.14733863 0.07099479 -0.0098937275 -0.022859443 -0.15520208 -0.07755266 0.11690234 0.0427668
-0.04747234 -0.16267605 0.13231868 0.046022907 -0.09168077 -0.00015287203 -0.1532877 0.25621864
0.18598892 0.20842789 -0.080789454 0.11422041 0.08713968 -0.078456104 0.12564266 -0.06149395
0.14075434 0.20468122 -0.20046999 -0.07592856 -0.04992836 -0.23349759 -0.035595804 0.1829994
0.10997638 0.22182314 0.18883413 -0.19162223 -0.1585946 0.13746256 -0.20155309 -0.1572737
-0.07713522 0.027202556 -0.2603295 -0.05528373 -0.19117622 0.18197681 0.04489575 -0.15786862
0.06995926 0.0803049 -0.26934183 -0.22354615 -0.23321414 0.12018975 -0.11293518 -0.2418618
0.14493515 -0.0819331 0.04207871 -0.16260296 0.1483428 0.25090137 0.17542456 0.13364786
-0.07600811 -0.19015425 0.19200286 -0.1494153 -0.27285397 0.1651709 -0.20684604 -0.27976918
-0.058594696 0.111850806 -0.017127786 0.049077593 -0.27327296 0.19930817 0.13248035 0.20025037
0.04838849 -0.1157167 0.19992265 0.17027651 -0.19392581 0.062259838 -0.116424665 0.176937
-0.27301988 0.23825602 -0.24897492 0.004259176 0.10756162 0.13283965 -0.18724187 0.14727071
0.060502592 -0.1558815 0.19543867 -0.06342709 0.17729053 -0.11088127 0.27788845 0.21694155
-0.2806883 -0.09793682 -0.23328036 0.24114254 0.17184407 -0.17972231 0.29216522 -0.02449541
0.2001816 -0.2856873 -0.22759366 0.12801585 0.18480164 -0.019312682 -0.07825691 0.11433496
-0.17206706 -0.109411836 -0.19807877 -0.049715318 -0.0329352 0.1024345 0.12729208 0.083568044
0.09794436 0.21675576 -0.0053571807 0.13486089 -0.12774727 -0.15112221 0.06545768 -0.062221874
-0.28928345 0.03956257 -0.033211898 0.23686504 -0.15561308 -0.13057609 0.12815702 0.07842857
-0.2604201 -0.08100618 -0.10505467 -0.09222427 0.21293256 -0.32031956 0.062033158 0.058127526
0.26707217 0.049342502 0.0017210925 -0.07331928 0.02236437 -0.049665716 -0.2684613 0.11055409
0.10093742 0.09142328 0.1291277 0.31035975 0.13195997 -0.06833302 0.19913843 -0.08095369
0.115444705 0.020830778 0.13152638 -0.061152082 -0.25438228 0.1324777 -0.022405723 0.22016299
0.10028688 -0.047723576 -0.24349515 -0.16930553 0.17785764 -0.23966457 0.21148106 0.08872107
-0.18643977 0.1612598 0.18703783 -0.09827333 -0.04882562 -0.0016119553 0.046386074 0.00957818
0.2769913 -0.1888754 -0.21049401 0.089253835 -0.12733929 0.0970483 0.21393107 0.17473444
0.1659332 0.063463435 0.08098533 -0.11762777 0.23982729 0.19419722 -0.2967659 -0.19563965
-0.20399673 0.25954565 0.15552208 -0.07724359 -0.2158015 -0.025231833 0.0950915 0.022274066
00000000: 1d07 d23d 6572 223e ec3b 80bd 07f1 303e
00000010: 2fc6 4e3e 5f0e 20be c82f 263e 8716 c1bd
00000020: 2329 363e e8c8 07be e3a6 293e c451 1bbe
00000030: a781 26be 052a 963d 104a ccbd 6643 5f3e
00000040: f81e 43bd 5fc9 023e 24c6 c43d 682b 8f3d
00000050: 5913 9fbd aa57 b83d fdc5 ae3d 392d 903e
00000060: c7a9 65be 9a79 85be d6f0 df3d 62f0 653d
00000070: e272 1cbd bd88 383e 40db ee3d 06c5 0ebe
00000080: 3257 c83c 161a 36be 38ce 5ebe 1a55 803e
00000090: 1f9d 25be a4ab 89bd 9c6d 243d 62a9 cc3d
000000a0: f0df 16be b765 913d 4d19 22bc ba43 bbbc
000000b0: 4bed 1ebe eed3 9ebd 7e6a ef3d 3d2c 2f3d
000000c0: 5b72 42bd 8d94 26be 8c7e 073e 8482 3c3d
000000d0: 21c3 bbbd 464c 20b9 73f7 1cbe 172f 833e
000000e0: e173 3e3e 1f6e 553e f174 a5bd 64ec e93d
000000f0: 4a76 b23d 98ad a0bd 78a8 003e 15e1 7bbd
00000100: e821 103e f497 513e 0148 4dbe 6f80 9bbd
00000110: ae81 4cbd fe19 6fbe e8cc 11bd 3264 3b3e
00000120: 4c3b e13d 9b25 633e bc5d 413e 9e38 44be
00000130: 9f66 22be fcc2 0c3e ef63 4ebe 5b0c 21be
00000140: 12f9 9dbd e5d7 de3c e949 85be 3171 62bd
00000150: b3c3 43be 2158 3a3e 9be4 373d 50a8 21be
00000160: cd46 8f3d e576 a43d 2ce7 89be 48e9 64be
00000170: b0cf 6ebe 0b26 f63d 8f4a e7bd 9faa 77be
00000180: e169 143e 8bcc a7bd ba5a 2c3d 6481 26be
00000190: 2de7 173e 2576 803e 7fa2 333e fcda 083e
000001a0: 24aa 9bbd ccb7 42be 669c 443e 5300 19be
000001b0: 84b3 8bbe 8f22 293e 73cf 53be e83d 8fbe
000001c0: fe00 70bd 0912 e53d 924f 8cbc 9605 493d
000001d0: 6fea 8bbe 7117 4c3e eea8 073e 6f0e 4d3e
000001e0: 0233 463d e1fc ecbd 86b8 4c3e f75c 2e3e
000001f0: 7d94 46be 2c04 7f3d 0e70 eebd f92e 353e
00000200: 43c9 8bbe 63f9 733e 48f3 7ebe 8f90 8b3b
00000210: 4449 dc3d 1e07 083e 55bc 3fbe 22ce 163e
00000220: 91d1 773d 669f 1fbe 1321 483e 10e6 81bd
00000230: a68b 353e b815 e3bd 6547 8e3e ed25 5e3e
00000240: 60b6 8fbe 1993 c8bd 0ce1 6ebe 12ee 763e
00000250: e4f7 2f3e 2009 38be ae96 953e 99aa c8bc
00000260: 68fc 4c3e 9b45 92be 500e 69be 9616 033e
00000270: a43c 3d3e a135 9ebc 2945 a0bd 7328 ea3d
00000280: 5932 30be 5013 e0bd 29d5 4abe 4aa2 4bbd
00000290: 0fe7 06bd 2ec9 d13d db58 023e b925 ab3d
000002a0: 0d97 c83d 39f5 5d3e 4a8b afbb f918 0a3e
000002b0: 2ed0 02be c8bf 1abe ad0e 863d 5ddc 7ebd
000002c0: f61c 94be 5d0c 223d 3309 08bd c08c 723e
000002d0: 0959 1fbe bdb5 05be 983b 033e 289f a03d
000002e0: c955 85be 91e6 a5bd e726 d7bd 14e0 bcbd
000002f0: fe0a 5a3e ed00 a4be 7b16 7e3d 2117 6e3d
00000300: afbd 883e 5d1b 4a3d 4896 e13a 6b28 96bd
00000310: 7c35 b73c 476e 4bbd c273 89be 2f6a e23d
00000320: 47b8 ce3d 213c bb3d 0d3a 043e 79e7 9e3e
00000330: 8420 073e 2ff2 8bbd f2ea 4b3e 0ccb a5bd
00000340: 466e ec3d 4fa5 aa3c daae 063e 9b7a 7abd
00000350: 653e 82be 3ca8 073e 358c b7bc 6872 613e
00000360: 3563 cd3d cc79 43bd cb56 79be 6e5e 2dbe
00000370: 5020 363e a16a 75be 7e8e 583e 64b3 b53d
00000380: 11ea 3ebe 4a21 253e d886 3f3e 8743 c9bd
00000390: 60fd 47bd 3f48 d3ba 53ff 3d3d cced 1c3c
000003a0: ced1 8d3e 8e68 41be be8b 57be b7ca b63d
000003b0: 3b65 02be 42c1 c63d bf10 5b3e 96ed 323e
000003c0: 65ea 293e 1ef9 813d a3db a53d d4e6 f0bd
000003d0: 4995 753e a3db 463e b3f1 97be c355 48be
000003e0: 85e4 50be 2be3 843e 2e41 1f3e e331 9ebd
000003f0: 12fb 5cbe fdb2 cebc 55bf c23d 1a78 b63c

fc.0.bias f4 [64]
-0.0776587 0.16674764 0.06942909 0.27161267 -0.20476446 -0.18490541 0.008396572 -0.23284103
0.21720451 0.16428249 0.21959248 -0.21378984 0.18383941 -0.109468505 0.2399487 -0.12482125
0.12790217 -0.2749402 -0.19106214 0.014593649 0.109477766 -0.20953709 0.1647159 0.059721626
0.09100517 -0.16783287 0.09942264 0.058776125 0.17341521 -0.002640415 0.20287241 0.07829794
0.024938677 0.23633309 -0.08282451 -0.27199396 0.24835914 0.20500693 -0.08183517 -0.08734775
0.39337134 0.32865852 -0.050705694 -0.07014441 -0.2193571 0.07192303 0.3690532 -0.15106286
0.012459005 0.2714325 0.10580536 0.04028371 -0.005973278 0.3728459 0.0390522 0.03996578
-0.11513395 0.26934424 -0.16867109 0.27758586 -0.099472925 -0.226639 0.16143507 0.03387256
00000000: 860b 9fbd e5bf 2a3e d730 8e3d d110 8b3e
00000010: c6ad 51be d857 3dbe c791 093c e16d 6ebe
00000020: dc6a 5e3e ab39 283e dadc 603e b9eb 5abe
00000030: 6640 3c3e 0631 e0bd 1db5 753e 49a2 ffbd
00000040: c9f8 023e f6c4 8cbe cba5 43be 331a 6f3c
00000050: e135 e03d e490 56be 49ab 283e aa9e 743d
00000060: eb60 ba3d 61dc 2bbe 199e cb3d 3cbf 703d
00000070: c293 313e d00a 2dbb c9bd 4f3e ac5a a03d
00000080: 324c cc3c 4d01 723e e69f a9bd cb42 8bbe
00000090: dc51 7e3e 56ed 513e 3399 a7bd 61e3 b2bd
000000a0: f867 c93e ee45 a83e c6b0 4fbd dfa7 8fbd
000000b0: 269f 60be 624c 933d 8bf4 bc3e 39b0 1abe
000000c0: db20 4c3c 33f9 8a3e 7bb0 d83d 8800 253d
000000d0: 7dbb c3bb a8e5 be3e 33f5 1f3d 28b3 233d
000000e0: 59cb ebbd 7de7 893e 1db8 2cbe bc1f 8e3e
000000f0: 76b8 cbbd 0e14 68be 3c4f 253e f4bd 0a3d

fc.2.weight f4 [128, 64]
0.17069781 0.08742097 -0.12685727 -0.054008562 -0.030697031 -0.035215553 -0.070756406 -0.06111816
0.06895372 -0.101304576 -0.07817402 0.0657646 -0.065549396 -0.032658342 0.0849741 0.097710975
-0.027041717 -0.077675074 0.04787453 0.056438237 0.072782874 -0.011125427 0.14941292 -0.09834112
-0.03540168 -0.0020755315 -0.014386868 0.085002854 -0.101093665 -0.032677226 -0.112973444 0.0786033
-0.015109312 0.040319208 0.020319367 0.12060943 -0.14061153 0.048031416 0.023967342 -0.08290904
-0.05655166 -0.072545804 0.002703003 -0.046908747 0.027257359 0.022570372 0.10986088 -0.069184594
0.012571 0.14510924 0.0875759 0.08956379 0.083543554 -0.101252496 0.081161715 0.007646727
0.05706236 0.08148773 -0.10385405 -0.13808788 0.06845159 -0.06435298 -0.040156182 0.11482873
-0.054200653 0.06734953 -0.05392377 0.02667979 0.078971595 -0.03344353 0.010165928 -0.10695827
-0.02854564 0.0012279548 -0.041522555 0.045949046 -0.06067274 -0.06620298 -0.064707406 0.064595945
0.13529235 -0.029824879 -0.033638228 0.008216528 0.014574721 -0.033165134 -0.057056144 -0.04959368
0.037990328 -0.11479677 0.14091274 -0.08708401 0.10092634 -0.08277142 -0.01886151 -0.027977087
0.0756104 0.11848551 0.12183263 -0.061760914 -0.0105828475 0.10573311 -0.123596944 0.096127294
0.005480734 -0.005440979 -0.06017971 0.10560524 0.11276828 -0.025317248 0.04085319 0.014290545
0.097123235 0.06456238 0.09545883 0.08709892 0.121588245 -0.0519312 -0.09465184 0.03327053
0.051627047 0.09750613 -0.15093426 0.023120947 -0.073230416 0.049047727 0.054193746 0.069469206
0.00958356 0.13919002 0.0018320275 -0.0002887432 -0.058621995 0.011536731 0.124343656 0.023000142
0.11259354 0.11714026 0.10831659 0.049158413 -0.08762509 0.09706642 -0.005020746 0.025975171
0.012498554 -0.02447714 0.07520357 0.051576924 -0.106042355 -0.040934492 -0.029478796 -0.014365469
0.090033375 -0.093116865 0.09941267 -0.08393057 0.00057467545 0.018051522 0.13829868 -0.015758049
0.003145561 0.083551854 0.11902162 -0.13244833 0.11186787 -0.010463017 -0.02515043 -0.08458451
0.07515402 -0.07075584 -0.06330275 0.13065287 -0.034242 -0.08001066 0.13728747 0.043949332
-0.0043589743 0.009935462 -0.016247353 0.036603108 -0.046284575 0.0473983 -0.061590943 -0.087058224
-0.1117877 -0.023293255 -0.12908486 -0.06051959 0.09914084 0.062402874 -0.04521469 0.087043405
0.12475163 -0.00079519383 0.024966393 -0.06816554 -0.06822145 -0.030899052 0.003321326 0.002666169
-0.0052612578 0.030840594 0.058128193 0.13352846 0.04294835 -0.06736141 0.08996416 -0.063491024
0.075985484 -0.001206793 -0.049275234 0.017106216 -0.034418616 0.056808826 -0.08311326 -0.11587616
-0.061028525 -0.06584117 -0.06713343 0.035852473 0.09210319 -0.0017567456 -0.10479914 -0.059237152
-0.06562233 0.107709035 0.0076463874 0.043166496 0.050451353 0.07908002 0.14512096 -0.087770194
0.020073332 -0.047724873 -0.07427217 -0.11298832 0.041988023 -0.027312255 0.12829089 -0.058952074
0.06326803 -0.111066505 -0.06895153 0.008148257 0.053761262 0.12553166 0.024486663 -0.027171712
0.036450762 0.08638602 -0.082758844 -0.052241944 -0.098692544 -0.11226819 0.034268692 0.081536025
00000000: 68cb 2e3e c409 b33d dfe6 01be 1538 5dbd
00000010: 5778 fbbc 2f3e 10bd bce8 90bd 0957 7abd
00000020: 9c37 8d3d c678 cfbd b319 a0bd 97af 863d
00000030: c33e 86bd c1c4 05bd e706 ae3d b11c c83d
00000040: 9786 ddbc 1c14 9fbd 1518 443d c82b 673d
00000050: 300f 953d 6c47 36bc b3ff 183e 1267 c9bd
00000060: 5a01 11bd a405 08bb e6b6 6bbc fa15 ae3d
00000070: 320a cfbd 8ed8 05bd 9f5e e7bd c4fa a03d
00000080: 0c8d 77bc c125 253d cd74 a63c 1402 f73d
00000090: 78fc 0fbe 97bc 443d 2957 c43c 37cc a9bd
000000a0: b7a2 67bd e592 94bd dd24 313b 6323 40bd
000000b0: d34a df3c 80e5 b83c befe e03d a7b0 8dbd
000000c0: 98f6 4d3c 8497 143e fe5a b33d 386d b73d
000000d0: e218 ab3d 785d cfbd 1d38 a63d 6591 fa3b
000000e0: 39ba 693d 0ae3 a63d 6fb1 d4bd e966 0dbe
000000f0: 5930 8c3d 7fcb 83bd cf7a 24bd 532b eb3d
00000100: 8101 5ebd 8dee 893d 2cdf 5cbd 938f da3c
00000110: dcbb a13d 15fc 08bd fe8e 263c f00c dbbd
00000120: 8cd8 e9bc 53f3 a03a 8e13 2abd 1135 3c3d
00000130: fb83 78bd 6e95 87bd 5185 84bd e14a 843d
00000140: 148a 0a3e 4e53 f4bc 3dc8 09bd 9e9e 063c
00000150: d0ca 6e3c 2ad8 07bd b4b3 69bd be22 4bbd
00000160: bf9b 1b3d 921a ebbd 6e4b 103e 1a59 b2bd
00000170: 78b2 ce3d 1084 a9bd 7483 9abc 3430 e5bc
00000180: a0d9 9a3d 88a8 f23d 6383 f93d 03f9 7cbd
00000190: ae63 2dbc 9a8a d83d 6520 fdbd 63de c43d
000001a0: bb97 b33b 3d4a b2bb 007f 76bd 8f47 d83d
000001b0: 0ef3 e63d 1e66 cfbc ad55 273d e422 6a3c
000001c0: 8ce8 c63d 4839 843d eb7f c33d eb60 b23d
000001d0: 4203 f93d cfb5 54bd d3d8 c1bd ae46 083d
000001e0: e276 533d 4bb1 c73d 838e 1abe 2468 bd3c
000001f0: d4f9 95bd 45e6 483d 43fa 5d3d df45 8e3d
00000200: 5d04 1d3c d487 0e3e a420 f03a 7562 97b9
00000210: 9e1d 70bd 8f04 3d3c e3a7 fe3d cb6a bc3c
00000220: 7197 e63d 3ce7 ef3d 17d5 dd3d 555a 493d
00000230: c874 b3bd c2ca c63d 1285 a4bb e2c9 d43c
00000240: bcc6 4c3c 4884 c8bc 5404 9a3d 5342 533d
00000250: bc2c d9bd edaa 27bd 847d f1bc 255d 6bbc
00000260: 6b63 b83d 0eb4 bebd df98 cb3d cae3 abbd
00000270: d1a5 163a c9e0 933c 2b9e 0d3e 0617 81bc
00000280: c225 4e3b 3c1d ab3d 9bc1 f33d 89a0 07be
00000290: fb1a e53d 136d 2bbc 4608 cebc a53a adbd
000002a0: 5aea 993d 70e8 90bd dfa4 81bd dec9 053e
000002b0: 5741 0cbd a1dc a3bd 1695 0c3e 3704 343d
000002c0: bad5 8ebb 59c8 223c 2b19 85bc 24ed 153d
000002d0: e594 3dbd b824 423d c946 7cbd 954b b2bd
000002e0: f3f0 e4bd 7fd1 bebc d22e 04be 64e3 77bd
000002f0: 5a0a cb3d 289a 7f3d 0a33 39bd d043 b23d
00000300: c87d ff3d 8e74 50ba 5286 cc3c 609a 8bbd
00000310: b0b7 8bbd 0220 fdbc 9baa 593b e5ba 2e3b
00000320: a166 acbb 6aa5 fc3c d417 6e3d afbb 083e
00000330: 9cea 2f3d c7f4 89bd 213f b83d 9507 82bd
00000340: 479e 9b3d 412d 9eba d4d4 49bd 5622 8c3c
00000350: 89fa 0cbd 5fb0 683d 4937 aabd 7b50 edbd
00000360: 0cf9 79bd bcd7 86bd 407d 89bd 0bda 123d
00000370: 99a0 bc3d 9a42 e6ba eea0 d6bd a8a2 72bd
00000380: 0065 86bd 8e96 dc3d 8c8e fa3b 5acf 303d
00000390: 14a6 4e3d b5f4 a13d 979a 143e dcc0 b3bd
000003a0: d470 a43c 287b 43bd 021c 98bd 6c66 e7bd
000003b0: a2fb 2b3d f3bd dfbc b05e 033e bb77 71bd
000003c0: ab92 813d d676 e3bd 7636 8dbd 4480 053c
000003d0: c534 5c3d 5f8b 003e 4198 c83c 3697 debc
000003e0: 654d 153d 27eb b03d 787d a9bd a6fb 55bd
000003f0: 511f cabd ddec e5bd 545d 0c3d 5cfc a63d

fc.2.bias f4 [128]
0.06379049 0.020881224 0.090351224 0.07130833 -0.09381495 -0.061766043 -0.11074972 0.026652548
0.09862673 0.012717185 0.06560075 -0.08536199 0.080336355 0.1745017 -0.04993186 0.032457694
0.01199868 0.121712476 0.12763934 -0.12065733 0.008195511 -0.18478666 -0.11390598 -0.010131432
0.0005028056 0.027448092 -0.07926626 0.005207102 0.1626247 -0.012642959 -0.099863656 0.030550158
-0.1698355 -0.012750988 0.16217886 0.05066847 -0.09470851 0.05769577 -0.027192742 0.098047376
0.117479265 -0.008306669 -0.08484163 -0.059625663 0.05819958 -0.06457269 0.06815407 -0.08295412
0.016869383 0.17147489 -0.04905044 0.046074007 0.0701656 0.07210568 0.10961409 -0.011312995
-0.0023212524 -0.0582815 -0.056074128 0.043035127 -0.07775082 -0.12805833 0.022385845 -0.040986504
0.13147062 0.0024818468 0.05936172 -0.12985343 -0.06289295 0.030046511 -0.09886865 -0.04904923
0.07391992 0.29600662 -0.123557895 -0.11367794 0.013902163 0.08148843 0.0021666368 -0.06899604
0.063536435 0.11003546 0.011100844 0.07347787 0.06290597 0.14930092 -0.3493967 -0.10824442
0.060167767 0.062113088 0.17000493 0.14718235 0.031558923 0.005256851 0.06757553 0.010134597
-0.06902628 0.07562092 -0.04814325 -0.059089743 -0.06213758 0.12465346 0.14423993 0.0040859436
0.05702589 0.019236196 0.026917035 -0.044215355 0.114746705 0.016617397 -0.0046182303 0.02943562
-0.12790026 0.14909357 0.030030873 0.035177443 0.0005557106 0.0835555 -0.053599674 -0.013148599
-0.08316122 0.055044178 0.10626828 0.012486209 -0.062990665 -0.10821684 0.13061099 0.12034141
00000000: 97a4 823d 1a0f ab3c 100a b93d 1a0a 923d
00000010: 0d22 c0bd 64fe 7cbd c0d0 e2bd 7256 da3c
00000020: d0fc c93d bd5b 503c b059 863d 44d2 aebd
00000030: 6387 a43d 93b0 323e 5a85 4cbd 5cf2 043d
00000040: 1d96 443c 6444 f93d e3b3 023e 311b f7bd
00000050: 7746 063c b738 3dbe 8a47 e9bd 4efe 25bc
00000060: b6ce 033a d2da e03c 5956 a2bd 56a0 aa3b
00000070: 1787 263e 6a24 4fbc 5185 ccbd 5344 fa3c
00000080: 5be9 2dbe 85e9 50bc 3712 263e be89 4f3d
00000090: 89f6 c1bd 6652 6c3d 50c3 debc 10cd c83d
000000a0: f898 f03d b218 08bc 73c1 adbd 0a3a 74bd
000000b0: af62 6e3d b03e 84bd 5c94 8b3d dae3 a9bd
000000c0: a931 8a3c 1d97 2f3e 1de9 48bd 19b8 3c3d
000000d0: fbb2 8f3d 25ac 933d 5a7d e03d 245a 39bc
000000e0: 2720 18bb 95b8 6ebd fcad 65bd 9a45 303d
000000f0: d23b 9fbd b921 03be 8562 b73c 77e1 27bd
00000100: 3ca0 063e 7ba6 223b 4625 733d 4cf8 04be
00000110: 05ce 80bd 1a24 f63c a67b cabd d8e7 48bd
00000120: 5463 973d 2e8e 973e ec0b fdbd fbcf e8bd
00000130: e6c5 633c 68e3 a63d 22fe 0d3b cc4d 8dbd
00000140: 641f 823d 455a e13d 50e0 353c 917b 963d
00000150: d8d4 803d 57e2 183e 20e4 b2be 40af ddbd
00000160: 7a72 763d 4b6a 7e3d c615 2e3e f8b6 163e
00000170: ee43 013d aa41 ac3b 0a65 8a3d 950b 263c
00000180: a65d 8dbd 24df 9a3d db31 45bd 1608 72bd
00000190: fa83 7ebd 504a ff3d a2b3 133e 61e3 853b
000001a0: fb93 693d 3a95 9d3c 1d81 dc3c 291b 35bd
000001b0: 5200 eb3d 3521 883c 8654 97bb f822 f13c
000001c0: 49f8 02be fcab 183e 4e03 f63c 3916 103d
000001d0: 1bad 113a 251f ab3d 558b 5bbd 396d 57bc
000001e0: 6e50 aabd 0176 613d 2fa3 d93d f592 4c3c
000001f0: 4001 81bd caa0 ddbd e3be 053e 8f75 f63d

fc.4.weight f4 [6, 128]
0.08850182 -0.08952037 -0.083946645 0.04430351 -0.08949227 0.034068536 -0.07908364 0.023721943
-0.01622575 -0.08580667 -0.008818393 -0.1093963 0.056567773 0.037832845 -0.040969405 0.0022753354
0.054137543 -0.033005573 -0.06606891 -0.005828633 -0.05601951 0.21938576 -0.03742637 0.0010032761
-0.050095506 0.07898359 0.014146201 -0.04256456 -0.05035773 0.0068794587 -0.08380538 -0.056239355
0.020415425 -0.034793057 -0.09100257 0.0073739253 -0.0019427972 -0.0052807615 -0.07489256 -0.04526605
0.07342111 -0.052311618 0.053747296 0.019197173 -0.08474803 -0.038833417 0.066040784 -0.106994964
0.00993622 -0.11255538 0.0046912227 -0.08581269 0.023108812 0.06604545 -0.017419104 -0.019576482
0.088603266 0.00091192406 0.06954132 0.054628808 0.0036911806 0.022802044 0.019109037 -0.0640316
0.01637765 0.04426515 -0.06759181 0.018357923 0.045640554 0.0714155 0.075289555 0.0002716619
-0.005262606 -0.07804276 -0.07529422 0.038109276 0.042471476 -0.026092311 -0.06053564 0.036440615
0.055125654 -0.025087608 -0.009486909 0.038756125 -0.053673085 0.022066286 0.036605574 -0.07060129
-0.04151916 0.021152139 -0.004501009 -0.09085936 0.11290132 -0.04205002 0.013072602 -0.03102377
-0.019133734 -0.012269421 0.06604074 -0.085563354 0.11923597 -0.017015485 -0.08834254 -0.0401113
-0.0942721 0.007854348 -0.00028345137 0.05685299 -0.017679399 0.06867989 -0.07403406 0.037149664
-0.042487666 0.027813055 -0.07592374 -0.07019345 -0.051299747 0.044925377 -0.054979544 -0.034359172
0.07769176 -0.013323162 -0.022535829 -0.035017233 -0.037399296 0.032908335 0.05926878 -0.09984158
-0.08269547 -0.04706331 -0.027346656 -0.06603471 0.022628538 -0.08515448 0.04826574 0.042654958
0.045747172 -0.054983538 -0.0651863 0.039088372 0.033626623 -0.0033734455 0.0056635733 0.042446837
0.03776917 -0.0862368 -0.15468983 0.024855055 0.057705883 0.14514264 0.13015352 0.060070846
-0.034236215 -0.03616035 -0.050815314 -0.10641198 -0.089295805 -0.02204792 0.020303974 -0.10008991
0.15751356 0.058087632 0.029225284 -0.03277439 -0.012992547 -0.025450032 -0.0213032 -0.031425383
-0.10875037 -0.07411052 -0.06840526 -0.056646753 -0.107925065 -0.052405413 -0.07676627 -0.026689792
-0.045608856 -0.033497266 0.032270297 -0.07813744 0.019426882 0.0034862617 -0.092090875 -0.00934057
-0.027357055 -0.013547382 0.059618343 -0.068759724 -0.0711494 0.043259524 0.024485938 -0.03877672
-0.04432598 -0.06069804 -0.03724195 0.07299119 0.033625428 0.05038553 -0.0052565723 -0.06681406
0.06003429 -0.121360965 0.109979585 0.013326626 0.0018776892 -0.1048009 0.015466559 -0.04699123
0.034360517 -0.09861645 -0.06339332 -0.089306846 -0.084953465 0.00018420645 0.19110069 0.09006195
0.05298042 -0.01589423 -0.07822092 -0.10490803 -0.025472235 0.021896673 0.056834422 -0.019834511
0.0037807398 0.032613676 0.1272509 0.0006368579 0.07237941 -0.08184951 -0.11245087 -0.020704271
-0.07897262 -0.059812296 -0.03220846 0.02182109 0.02003689 -0.010459406 -0.08264887 -0.0752545
0.020928202 -0.1048443 -0.039276354 0.032138813 0.072856 -0.0416164 -0.029265787 0.059909586
0.03879094 -0.07473123 -0.0337533 -0.019154899 -0.055987578 -0.01561624 -0.006941768 0.061149493
00000000: 7140 b53d 7556 b7bd 38ec abbd 9977 353d
00000010: b947 b7bd 738b 0b3d 9af6 a1bd 8554 c23c
00000020: ddeb 84bc 68bb afbd 057b 10bc 2b0b e0bd
00000030: 9cb3 673d 9df6 1a3d 89cf 27bd cb1d 153b
00000040: 54bf 5d3d da30 07bd 234f 87bd 1efe bebb
00000050: b774 65bd a9a6 603e 654c 19bd 5c80 833a
00000060: f230 4dbd 26c2 a13d 78c5 673c 2d58 2ebd
00000070: e843 4ebd 156d e13b 28a2 abbd 3d5b 66bd
00000080: 403e a73c 2a83 0ebd 8e5f babd f8a0 f13b
00000090: 75a5 feba 3d0a adbb 4561 99bd e568 39bd
000000a0: cf5d 963d b544 56bd 2026 5c3d 6443 9d3c
000000b0: 6090 adbd ca0f 1fbd 6440 873d 2d20 dbbd
000000c0: 87cb 223c 6f83 e6bd d4b8 993b 90be afbd
000000d0: b14e bd3c d642 873d 82b2 8ebc dc5e a0bc
000000e0: a175 b53d 300e 6f3a ae6b 8e3d 75c2 5f3d
000000f0: bce7 713b 5acb ba3c 8e8a 9c3c 0023 83bd
00000100: 6c2a 863c 604f 353d 936d 8abd 5b63 963c
00000110: 97f1 3a3d 4a42 923d 6931 9a3d d86d 8e39
00000120: f071 acbb e2d4 9fbd db33 9abd 7918 1c3d
00000130: 92f6 2d3d 8bbf d5bc 38f4 77bd c142 153d
00000140: 70cb 613d 8784 cdbc fb6e 1bbc bebe 1e3d
00000150: 4fd8 5bbd 5bc4 b43c baef 153d 6997 90bd
00000160: ff0f 2abd 4047 ad3c 337d 93bb 7914 babd
00000170: cf38 e73d a43c 2cbd 782e 563c 9025 febc
00000180: 59be 9cbc ae05 49bc 5e40 873d d73b afbd
00000190: fd31 f43d 0f64 8bbc efec b4bd bf4b 24bd
000001a0: bb11 c1bd 86af 003c 339c 94b9 aede 683d
000001b0: 63d4 90bc 0ba8 8c3d 2b9f 97bd 3f2a 183d
000001c0: 8c07 2ebd 34d8 e33c e87d 9bbd 95c1 8fbd
000001d0: af1f 52bd ac03 383d 3b32 61bd 34bc 0cbd
000001e0: dc1c 9f3d 6449 5abc 0f9d b8bc 3b6e 0fbd
000001f0: 0130 19bd e4ca 063d d2c3 723d be79 ccbd
00000200: 3e5c a9bd 75c5 40bd 1806 e0bc 353d 87bd
00000210: 7c5f b93c 7965 aebd 4cb2 453d f7b6 2e3d
00000220: 6361 3b3d 6b36 61bd 6580 85bd 211b 203d
00000230: 12bc 093d 0615 5dbb 7f95 b93b bcdc 2d3d
00000240: d8b3 1a3d eb9c b0bd 0367 1ebe d49c cb3c
00000250: 015d 6c3d 46a0 143e f746 053e d90c 763d
00000260: 463b 0cbd e01c 14bd b823 50bd 86ee d9bd
00000270: b8e0 b6bd d79d b4bc 8554 a63c f0fb ccbd
00000280: 3c4b 213e 4ced 6d3d dd69 ef3c 703e 06bd
00000290: b1de 54bc 967c d0bc 0c84 aebc e7b7 00bd
000002a0: 84b8 debd 42c7 97bd 0f18 8cbd 6d06 68bd
000002b0: d107 ddbd 0fa7 56bd a237 9dbd 8da4 dabc
000002c0: 5ad0 3abd 6e34 09bd dc2d 043d 8606 a0bd
000002d0: 2025 9f3c c479 643b 249a bcbd 3109 19bc
000002e0: e71b e0bc d7f5 5dbc 5d32 743d e6d1 8cbd
000002f0: c7b6 91bd e630 313d bc96 c83c 57d4 1ebd
00000300: 298f 35bd 829e 78bd 048b 18bd 687c 953d
00000310: d1ba 093d 0f61 4e3d 533f acbb cfd5 88bd
00000320: 84e6 753d 198c f8bd fa3c e13d ec57 5a3c
00000330: cb1c f63a dba1 d6bd 7367 7d3c e079 40bd
00000340: 9dbd 0c3d 6cf7 c9bd 5bd4 81bd 82e6 b6bd
00000350: 15fc adbd 8b27 4139 e6af 433e 6672 b83d
00000360: ff01 593d 9e34 82bc 4a32 a0bd 05da d6bd
00000370: 26ab d0bc a760 b33c 36cb 683d fc7b a2bc
00000380: 4ac6 773b eb95 053d 0f4e 023e cff2 263a
00000390: a83b 943d b7a0 a7bd a44c e6bd 019c a9bc
000003a0: 66bc a1bd bdfd 74bd 05ed 03bd 24c2 b23c
000003b0: 6724 a43c ee5d 2bbc d043 a9bd 081f 9abd
000003c0: 9f71 ab3c 9cb8 d6bd 3ee0 20bd fda3 033d
000003d0: 8735 953d f575 2abd cebe efbc c163 753d
000003e0: 40e3 1e3d b00c 99bd e640 0abd bcea 9cbc
000003f0: 3b53 65bd 42db 7fbc c577 e3bb e477 7a3d

fc.4.bias f4 [6]
-0.08065585 0.00081985915 -0.005591968 0.04907387 -0.11312211 0.007191151
00000000: e52e a5bd d1eb 563a d43c b7bb af01 493d
00000010: 91ac e7bd bfa3 eb3b
